2024-02-27,18:03:08 | INFO | Running with a single process. Device cuda:0.
2024-02-27,18:03:08 | INFO | Loading pretrained ViT-B-32 from OpenAI.
2024-02-27,18:03:19 | INFO | Model:
2024-02-27,18:03:19 | INFO | CLIP(
  (visual): VisualTransformer(
    (conv1): Conv2d(3, 768, kernel_size=(32, 32), stride=(32, 32), bias=False)
    (ln_pre): LayerNorm((768,), eps=1e-05, elementwise_affine=True)
    (transformer): Transformer(
      (resblocks): ModuleList(
        (0-11): 12 x ResidualAttentionBlock(
          (attn): MultiheadAttention(
            (out_proj): NonDynamicallyQuantizableLinear(in_features=768, out_features=768, bias=True)
          )
          (ln_1): LayerNorm((768,), eps=1e-05, elementwise_affine=True)
          (mlp): Sequential(
            (c_fc): Linear(in_features=768, out_features=3072, bias=True)
            (gelu): QuickGELU()
            (c_proj): Linear(in_features=3072, out_features=768, bias=True)
          )
          (ln_2): LayerNorm((768,), eps=1e-05, elementwise_affine=True)
        )
      )
    )
    (ln_post): LayerNorm((768,), eps=1e-05, elementwise_affine=True)
  )
  (transformer): Transformer(
    (resblocks): ModuleList(
      (0-11): 12 x ResidualAttentionBlock(
        (attn): MultiheadAttention(
          (out_proj): NonDynamicallyQuantizableLinear(in_features=512, out_features=512, bias=True)
        )
        (ln_1): LayerNorm((512,), eps=1e-05, elementwise_affine=True)
        (mlp): Sequential(
          (c_fc): Linear(in_features=512, out_features=2048, bias=True)
          (gelu): QuickGELU()
          (c_proj): Linear(in_features=2048, out_features=512, bias=True)
        )
        (ln_2): LayerNorm((512,), eps=1e-05, elementwise_affine=True)
      )
    )
  )
  (token_embedding): Embedding(49408, 512)
  (ln_final): LayerNorm((512,), eps=1e-05, elementwise_affine=True)
)
2024-02-27,18:03:19 | INFO | Params:
2024-02-27,18:03:19 | INFO |   batch_size: 256
2024-02-27,18:03:19 | INFO |   beta1: 0.9
2024-02-27,18:03:19 | INFO |   beta2: 0.98
2024-02-27,18:03:19 | INFO |   checkpoint_path: ./logs/negCLIP/negclip_256_1e-6-att-tune/checkpoints
2024-02-27,18:03:19 | INFO |   copy_codebase: False
2024-02-27,18:03:19 | INFO |   csv_caption_key: title
…
